AppendixCodes/Assignment 1/Previous Model Exploration/finish_model.pkl (torch_old, 111799 bytes, 6 tensors)

weight f4 [128, 67]
-0.08243102 0.00020375103 0.00983277 0.035634514 -0.10204296 -0.065053016 -0.024060555 -0.0074550835
0.10153696 -0.10907876 0.08314895 -0.09154279 -0.012693603 0.056250393 0.044621337 0.06126239
-0.10941621 0.022045132 -0.10736561 -0.023389637 0.053717833 -0.058814533 -0.071971506 -0.06372431
0.004305754 0.008240513 -0.06043394 -0.04346258 0.054195944 -0.063032344 -0.05333594 -0.08464159
-0.102102794 -0.077571996 -0.051475644 0.09325937 -0.10185255 -0.009077778 0.055386815 -0.0043650335
-0.0336033 0.016226493 0.08245482 0.035131693 -0.11172273 0.07597289 0.08434853 -0.015580525
0.064032175 -0.003486379 0.0074400175 -0.005353146 -0.07971166 -0.051220655 -0.10423346 0.012852754
-0.0012534643 -0.037529435 0.034200605 0.077272445 0.11116636 0.043038454 -0.03680723 0.10245513
0.046131607 0.08887828 0.09578935 -0.013140191 0.054877654 -0.077432886 -0.09068982 -0.09849572
0.00462725 -0.0066368133 0.095095225 0.010452991 0.016978834 0.06325457 -0.098874934 -0.042860236
0.042571504 0.028649718 -0.016828947 0.10376027 0.061578628 0.022542676 0.059673518 0.033533514
0.007950466 0.014955475 -0.07377263 -0.051723685 -0.083379276 0.08604921 0.06845025 0.0034066038
-0.026160788 0.08018694 0.10079396 0.08512942 0.10642408 -0.09424198 0.1000732 -0.07904049
0.009438884 -0.052544523 0.02054302 0.0383634 -0.04567718 -0.083768 0.036157936 0.048439972
0.09380087 -0.02671177 -0.08575891 -0.050607227 0.048862237 0.074419454 -0.053168815 -0.024479523
0.06474125 -0.09053662 -0.06958733 0.008571129 0.10023218 0.07043434 -0.065003626 -0.06424313
0.02935004 -0.004268838 -0.043300383 0.07881603 0.10451563 -0.010415986 0.05112978 -0.0712233
-0.018536523 -0.03162704 0.018159604 0.03338041 -0.06299433 -0.008893897 -0.0341714 0.09850549
0.05672046 0.111904696 0.053383816 0.10674141 -0.025054887 0.1102041 -0.071658276 -0.035689227
0.0491017 0.071060285 0.025777334 0.07398993 -9.056274e-05 0.06440128 0.023488797 -0.08761441
0.06056837 -0.026983779 0.10522176 -0.091071434 0.08936692 0.10980056 -0.039100654 -0.0299718
-0.004742698 0.06314686 -0.0032217335 0.06708309 0.012374159 0.026780479 -0.071551874 0.019209687
-0.038928527 -0.011425536 -0.045995217 0.00690965 -0.04569062 0.0813851 0.06175727 -0.023274783
-0.007854397 0.08950867 0.0023429114 -0.012390687 -0.045760658 0.06985032 -0.037707746 -0.10826872
0.017344376 -2.1715648e-05 0.004900323 0.033750486 0.110670336 0.018025585 0.051144466 0.028000206
-0.014716599 -0.10058672 -0.025519297 -0.08902846 -0.010133546 -0.06907325 -0.03578379 0.059880577
0.095080204 0.07253354 -0.05180662 -0.01578693 -0.006694502 0.058140405 -0.059907284 0.09338918
0.006925755 0.06653292 -0.11015732 0.007795751 0.03357157 0.055388976 -0.007041488 0.045408815
-0.034157522 0.014132266 -0.023328606 0.0017843163 0.01359069 0.100252114 0.021789499 -0.017133143
-0.030675244 -0.09364931 -0.03653348 -0.06891869 0.09300751 0.10104135 0.008530013 0.06978096
-0.068260126 0.07490748 0.082193136 0.037428174 0.05486947 -0.09129034 0.046584956 -0.056074508
-0.05351437 -0.08509014 -0.0827647 0.05325112 -0.088548236 0.06843389 0.08178823 -0.01688915
00000000: 98d1 a8bd 00a6 5539 a019 213c 7ff5 113d
00000010: e6fb d0bd 843a 85bd a41a c5bc c649 f4bb
00000020: 9cf2 cf3d af64 dfbd ff49 aa3d c97a bbbd
00000030: d4f8 4fbc d066 663d ddc4 363d 46ee 7a3d
00000040: 9b15 e0bd fe97 b43c 80e2 dbbd a09b bfbc
00000050: 3b07 5c3d 82e7 70bd cc65 93bd e481 82bd
00000060: 4817 8d3b 3703 073c 9489 77bd d105 32bd
00000070: 91fc 5d3d 1a17 81bd c976 5abd 9258 adbd
00000080: 451b d1bd 11de 9ebd 20d8 52bd c5fe be3d
00000090: 1298 d0bd f6ba 14bc 49dd 623d 8e08 8fbb
000000a0: 9da3 09bd 6ced 843c 13de a83d 40e6 0f3d
000000b0: e3ce e4bd ad97 9b3d ecbe ac3d 7545 7fbc
000000c0: 4d23 833d bc7b 64bb 64cb f33b 7269 afbb
000000d0: de3f a3bd c0cc 51bd 5a78 d5bd 5c94 523c
000000e0: 484b a4ba 77b8 19bd ef15 0c3d 0441 9e3d
000000f0: 30ab e33d 1749 303d 2ec3 16bd ffd3 d13d
00000100: 7ff4 3c3d d105 b63d 352d c43d f549 57bc
00000110: 64c7 603d 2295 9ebd 96bb b9bd 20b8 c9bd
00000120: 30a0 973b a079 d9bb 49c1 c23d 0643 2b3c
00000130: 3217 8b3c 9d8b 813d f17e cabd 378e 2fbd
00000140: 755f 2e3d d0b2 ea3c dcdc 89bc 4480 d43d
00000150: df39 7c3d 6bab b83c 386c 743d 705a 093d
00000160: ac42 023c cf07 753c 1b16 97bd 37dc 53bd
00000170: c1c2 aabd 913a b03d a52f 8c3d 5441 5f3b
00000180: 264f d6bc 0d39 a43d 106d ce3d 5558 ae3d
00000190: def4 d93d f001 c1bd 2ef3 cc3d fbdf a1bd
000001a0: 8da5 1a3c ed38 57bd d649 a83c f122 1d3d
000001b0: ff17 3bbd 8f8e abbd 581a 143d fe68 463d
000001c0: ac1a c03d a4d2 dabc 5ea2 afbd 8649 4fbd
000001d0: c523 483d 3a69 983d 8bc7 59bd 4889 c8bc
000001e0: 0f97 843d 436b b9bd cd83 8ebd ec6d 0c3c
000001f0: 8746 cd3d e13f 903d 9f20 85bd e791 83bd
00000200: 7f6f f03c 9ce1 8bbb be5b 31bd 4c6a a13d
00000210: 4a0c d63d d0a7 2abc 766d 513d 86dd 91bd
00000220: e8d9 97bc 5b8b 01bd 73c3 943c e6b9 083d
00000230: 2c03 81bd b5b7 11bc 4ff7 0bbd 3fbd c93d
00000240: b753 683d 4a2e e53d fda8 5a3d 3e9b da3d
00000250: e83f cdbc b0b2 e13d 93c1 92bd de2e 12bd
00000260: dd1e 493d 0e88 913d fd2a d33c 0888 973d
00000270: 80ec bdb8 d1e4 833d 946b c03c 2f6f b3bd
00000280: 8a16 783d 160d ddbc 827e d73d a983 babd
00000290: 0106 b73d 1edf e03d 0228 20bd 6c87 f5bc
000002a0: a268 9bbb 2453 813d b823 53bb dc62 893d
000002b0: fcbc 4a3c bc62 db3c ca89 92bd a25d 9d3c
000002c0: 8573 1fbd 2c32 3bbc 7b65 3cbd 586a e23b
000002d0: 1626 3bbd 3bad a63d 31f5 7c3d c2aa bebc
000002e0: bbaf 00bc 5250 b73d 888b 193b 4f02 4bbc
000002f0: 876f 3bbd af0d 8f3d 7073 1abd febb ddbd
00000300: cb15 8e3c 002a b6b7 e492 a03b f33d 0a3d
00000310: 21a7 e23d 64aa 933c dc7c 513d b060 e53c
00000320: e41d 71bc 6900 cebd d80d d1bc 8e54 b6bd
00000330: 2c07 26bc 4776 8dbd 0692 12bd 5645 753d
00000340: 69b9 c23d 778c 943d 2e33 54bd 9853 81bc
00000350: 8e5d dbbb a224 6e3d 5761 75bd d442 bf3d
00000360: 72f1 e23b 6942 883d 299a e1bd 8073 ff3b
00000370: 5882 093d 8ddf 623d 48bc e6bb 98fe 393d
00000380: c2e8 0bbd 058b 673c a21b bfbc b8df e93a
00000390: 7cab 5e3c fb50 cd3d e47f b23c ce5a 8cbc
000003a0: a64a fbbc 36cb bfbd 21a4 15bd 3e25 8dbd
000003b0: b97a be3d c4ee ce3d 78c1 0b3c 52e9 8e3d
000003c0: f7cb 8bbd 1869 993d e054 a83d 494e 193d
000003d0: cfbe 603d 6ef6 babd decf 3e3d 62ae 65bd
000003e0: e231 5bbd bd43 aebd 8a80 a9bd d91d 5a3d
000003f0: c758 b5bd 1127 8c3d 9680 a73d 1d5b 8abc

bias f4 [128]
-4.6457164e-05 -0.09648738 -0.110651694 -0.11173096 -0.014826417 0.077482045 0.0046613263 -0.08348591
-0.014204656 -0.084432304 0.0290514 -0.10165673 0.024624292 0.078525506 -0.08691322 -0.057387095
0.003878477 0.015105882 0.061764333 -0.03277536 0.01190437 -0.08124461 -0.009652934 0.05681498
-0.03927654 0.0015404318 0.021672 0.09460411 -0.04264854 0.06482294 0.03278773 -0.047039874
-0.07088283 -0.017155897 -0.086878926 -0.0486117 0.027587224 0.02853126 0.055977963 0.008192308
0.077975936 -0.08791629 0.10317357 -0.031912193 0.009301269 0.0062303413 0.11397164 -0.066039346
-0.0453635 0.04804938 0.08918066 0.012202811 -0.036104843 -0.024243388 -0.0047664596 -0.0678315
0.022882009 0.029906385 0.07097311 -0.10107078 -0.030685216 -0.037344858 0.09127298 0.046906658
0.09252123 -0.061321586 -0.008654432 -0.069017656 -0.02763182 -0.011602803 0.033307385 0.072296984
0.09204853 0.1120611 -0.03296192 0.08380275 -0.04864168 -0.09616697 0.0015234165 -0.105421275
-0.055688154 -0.091926254 0.07661948 0.09635265 0.055182867 -0.045516685 -0.014411565 -0.027138583
-0.10258926 -0.09468002 -0.11182762 -0.02211145 0.0685282 0.008066819 -0.087016314 -0.09473802
-0.06566358 -0.098300636 0.027181435 -0.008774009 -0.018061232 0.03605172 -0.0073166657 0.011506352
-0.039846525 -0.05125356 0.0687433 -0.05772855 -0.0002444666 0.02460308 -0.022484668 0.084519014
-0.07981441 0.018673819 0.029268289 0.021382574 -0.09372423 0.04344388 0.05485928 0.06727896
-0.104324706 -0.10403001 0.04293644 0.054867428 -0.007456553 -0.09922491 0.03162011 0.0305157
00000000: 00db 42b8 2d9b c5bd 5b9d e2bd 34d3 e4bd
00000010: 80ea 72bc e8ae 9e3d 0abe 983b a9fa aabd
00000020: a5ba 68bc d8ea acbd 34fd ed3c 6731 d0bd
00000030: e2b8 c93c fbd1 a03d 8fff b1bd bb0e 6bbd
00000040: 0c2e 7e3b a97e 773c 99fc 7c3d 753f 06bd
00000050: 8c0a 433c 9363 a6bd 5727 1ebc d3b6 683d
00000060: 70e0 20bd 50e8 c93a 7a89 b13c cdbf c13d
00000070: 3cb0 2ebd e4c1 843d 6d4c 063d e2ac 40bd
00000080: 042b 91bd 868a 8cbc 94ed b1bd 101d 47bd
00000090: 9afe e13c 64ba e93c 2649 653d 0839 063c
000000a0: d9b1 9f3d 750d b4bd aa4c d33d 5cb6 02bd
000000b0: 5a64 183c e427 cc3b f769 e93d a33f 87bd
000000c0: 14cf 39bd 6dcf 443d 5aa4 b63d 4dee 473c
000000d0: ace2 13bd 129a c6bc f62f 9cbb 3eeb 8abd
000000e0: 0d73 bb3c 3cfe f43c 5a5a 913d 32fe cebd
000000f0: 905f fbbc ecf6 18bd 54ed ba3d 3221 403d
00000100: c57b bd3d 582c 7bbd 52cb 0dbc 2159 8dbd
00000110: 205c e2bc af19 3ebc 536d 083d 7110 943d
00000120: f183 bc3d 4a80 e53d 1403 07bd c7a0 ab3d
00000130: 803c 47bd 30f3 c4bd 60ad c73a 1ce7 d7bd
00000140: 4319 64bd d543 bcbd adea 9c3d 8a54 c53d
00000150: 6e07 623d b46f 3abd 7c1e 6cbc bc51 debc
00000160: 511a d2bd 99e7 c1bd e105 e5bd 1223 b5bc
00000170: 8358 8c3d b12a 043c 9c35 b2bd 0206 c2bd
00000180: a17a 86bd d851 c9bd 9aab de3c dcc0 0fbc
00000190: 26f5 93bc f8aa 133d a4c0 efbb 2385 3c3c
000001a0: 1c36 23bd 41ef 51bd 4ac9 8c3d c674 6cbd
000001b0: c02b 80b9 668c c93c c431 b8bc 4e18 ad3d
000001c0: bd75 a3bd d6f9 983c 0dc4 ef3c 822a af3c
000001d0: 7df2 bfbd 36f2 313d 20b4 603d 8dc9 893d
000001e0: 31a8 d5bd b00d d5bd 1fde 2f3d abbc 603d
000001f0: 1a56 f4bb 6e36 cbbd 1784 013d 10fc f93c

weight f4 [128, 128]
-0.025554257 0.037436567 -0.016019456 0.06656281 0.065136224 0.030466931 0.033912554 -0.0015354585
-0.047957193 0.071500085 0.035967313 -0.008087976 -0.0351007 -0.045283206 -0.015717952 0.059800975
0.07181267 -0.0002669599 0.05229924 -0.01866735 -0.006341134 -0.030942213 0.024920203 0.049019042
-0.012919218 0.0206404 -0.020378657 0.019206885 0.048117332 -0.012622458 -0.08134068 0.010215885
0.0248157 -0.04436959 0.05563335 0.051440634 -0.059946172 -0.031231599 -0.008510206 -0.05064753
-0.010599861 0.030375138 -0.042959288 -0.020778773 0.0021458864 -0.017123971 -0.0051176343 0.037278786
0.0016243681 -0.007650312 -0.058706023 -0.04768321 -0.04860234 0.07309714 -0.008658759 0.07571734
-0.028849337 -0.006129604 0.044648044 -0.013278644 -0.0058126748 0.050043847 0.027235076 -0.096778356
-0.054493368 -0.012117068 0.07052497 0.005469406 -0.07675746 -0.018168338 -0.017965179 -0.02382673
-0.041447345 0.02360766 -0.022282096 -0.092137635 -0.040143065 -0.03755138 -0.06764311 0.076951966
0.0022936333 -0.07187707 0.02820861 -0.07714911 -0.07341274 0.02049657 -0.0069338176 -0.054284927
-0.07606599 0.078146115 0.002532999 0.03803175 -0.027439442 -0.018254861 0.05379366 0.049055286
-0.03778913 -0.072905906 0.021377243 -0.046017565 -0.010700903 0.054087415 -0.09318725 -0.07520568
0.002908188 -0.041756265 0.03219065 0.05848804 0.060437772 0.031918675 -0.065089464 -0.03404213
0.012815083 0.07259033 -0.058931913 -0.083839364 -0.0047144108 -0.005095206 -0.07181729 0.0152302105
-0.04178161 -0.02492303 0.064256564 -0.06838096 -0.0028082272 -0.0012217667 0.032574408 0.07466598
0.025140403 0.095518574 0.067342445 0.006904062 0.0016193176 0.032501012 -0.03372627 -0.042787176
-0.054462165 -0.006358523 -0.03499259 -0.06461262 0.036020435 0.074004166 0.039414637 0.06790422
-0.055334073 0.033938654 -0.02928919 0.025495565 -0.0014460757 0.054578915 0.059390545 -0.003046724
0.06940264 -0.051941052 0.072733864 -0.038853534 -0.072833985 0.04729736 0.0931488 0.043499187
-0.022181444 0.019716121 0.02329122 0.05350577 0.030126946 -0.057061113 -0.068314224 -0.026501404
0.0132133085 -0.025769792 0.061893817 0.034346707 0.047084846 0.0017508026 0.022347052 0.022022728
0.021790806 0.058423996 -0.03387277 -0.07835169 0.04804766 0.03863855 0.047813356 -0.02739418
-0.037357263 0.02212115 -0.0043491004 0.057863943 0.010073482 -0.07266334 0.053880077 0.0455412
-0.046503987 -0.063617125 0.07781189 0.021483269 -0.04980959 -0.003753407 0.0039702607 -0.06772401
0.033161215 0.069476195 0.0033585662 0.033161514 0.068042405 0.0009241486 -0.018894214 0.05357397
-0.07751057 0.0016291821 -0.06656884 0.08986216 -0.019611772 -0.0010659182 0.0110193435 -0.071400896
-0.020179085 0.008756506 0.026715573 0.06457638 -0.027027328 -0.014751475 0.023260325 -0.008803552
0.06764026 0.059106845 0.085942864 -0.007282054 -0.07562793 0.0057562916 -0.025801675 -0.037279
-0.0071959896 -0.025768012 0.04017949 -0.028046194 0.06651261 -0.03694352 0.023379456 0.088625744
-0.036803417 -0.02686428 0.04571106 -0.048714235 0.07400467 0.0029186131 0.053584717 -0.04690495
0.031443283 -0.032465685 0.050219633 -0.0016621342 0.036126424 0.03635168 -0.043927316 0.09161638
00000000: 2957 d1bc 1657 193d 3c3b 83bc 1552 883d
00000010: 2466 853d c995 f93c e4e7 0a3d 7041 c9ba
00000020: c36e 44bd a36e 923d 7652 133d 6e83 04bc
00000030: c0c5 0fbd e27a 39bd efc2 80bc def1 743d
00000040: 8512 933d c0f6 8bb9 ba37 563d 45ec 98bc
00000050: 4ac9 cfbb 867a fdbc 7425 cc3c 31c8 483d
00000060: 21ab 53bc 0e16 a93c 24f1 a6bc c257 9d3c
00000070: ae16 453d 6dce 4ebc f195 a6bd 8760 273c
00000080: 4b4a cb3c e3bc 35bd ccdf 633d 6ab3 523d
00000090: 1e8a 75bd 69d9 ffbc 646e 0bbc c973 4fbd
000000a0: 0aab 2dbc 48d5 f83c 14f6 2fbd 3f38 aabc
000000b0: 00a2 0c3b 9247 8cbc d4b1 a7bb a4b1 183d
000000c0: c0e8 d43a 78af fabb ba75 70bd 784f 43bd
000000d0: 3f13 47bd f4b3 953d 78dd 0dbc b111 9b3d
000000e0: 7255 ecbc d8da c8bb dee0 363d ab8e 59bc
000000f0: 4078 bebb c7fa 4c3d 181c df3c bb33 c6bd
00000100: 7034 5fbd ab86 46bc 656f 903d b438 b33b
00000110: 0433 9dbd c4d5 94bc b62b 93bc 4630 c3bc
00000120: b1c4 29bd da64 c13c f188 b6bc a8b2 bcbd
00000130: 0e6d 24bd 7acf 19bd 7988 8abd fe98 9d3d
00000140: c850 163b 4934 93bd be15 e73c 5a00 9ebd
00000150: 6b59 96bd 6ce8 a73c 1435 e3bb df59 5ebd
00000160: 7cc8 9bbd 120b a03d ac00 263b 2ec7 1b3d
00000170: aec8 e0bc 388b 95bc be56 5c3d 32ee 483d
00000180: c6c8 1abd b14f 95bd 541f af3c ea7c 3cbd
00000190: d752 2fbc c48a 5d3d f5d8 bebd 7005 9abd
000001a0: 4c97 3e3b 9e08 2bbd 58da 033d 2891 6f3d
000001b0: 998d 773d 28bd 023d a04d 85bd c36f 0bbd
000001c0: 5bf6 513c 3daa 943d 9762 71bd f9b3 abbd
000001d0: 587b 9abb b0f5 a6bb f114 93bd 2288 793c
000001e0: 3223 2bbd 622b ccbc f298 833d 510b 8cbd
000001f0: 3c0a 38bb b023 a0ba be6c 053d 7aea 983d
00000200: 3ff3 cd3c 3e9f c33d d6ea 893d 783b e23b
00000210: 483f d43a c81f 053d 8f24 0abd 9b41 2fbd
00000220: b813 5fbd 285b d0bb 6454 0fbd 9f53 84bd
00000230: 2a8a 133d 7f8f 973d 3e71 213d 5e11 8b3d
00000240: fba5 62bd 4203 0b3d e2ef efbc 13dc d03c
00000250: 408a bdba 248e 5f3d 8043 733d 8cab 47bb
00000260: f922 8e3d 24c0 54bd 7ef5 943d e224 1fbd
00000270: fc29 95bd e0ba 413d ccc4 be3d 342c 323d
00000280: dcb5 b5bc b483 a13c 3bcd be3c de28 5b3d
00000290: c9cc f63c eab8 69bd 54e8 8bbd 7919 d9bc
000002a0: a27c 583c 2c1b d3bc 5f84 7d3d 22af 0c3d
000002b0: 0adc 403d 307b e53a 2a11 b73c 0269 b43c
000002c0: a282 b23c 004e 6f3d 2cbe 0abd da76 a0bd
000002d0: a0cd 443d 7543 1e3d f0d7 433d c269 e0bc
000002e0: ee03 19bd 6a37 b53c e682 8ebb be02 6d3d
000002f0: 3f0b 253c 84d0 94bd 5bb1 5c3d 6989 3a3d
00000300: f77a 3ebd b249 82bd d75b 9f3d aefd af3c
00000310: 2405 4cbd b8fb 75bb f618 823b e3b2 8abd
00000320: 0ed4 073d 8949 8e3d 641b 5c3b 5ed4 073d
00000330: d159 8b3d 9042 723a 0ac8 9abc 6170 5b3d
00000340: ddbd 9ebd 488a d53a 3e55 88bd a709 b83d
00000350: dea8 a0bc 48b6 8bba 7a8a 343c a23a 92bd
00000360: 9c4e a5bc 7377 0f3c 9eda da3c 9f40 843d
00000370: 6a68 ddbc 2cb0 71bc 708c be3c c63c 10bc
00000380: fa86 8a3d 051a 723d d002 b03d 4c9e eebb
00000390: d1e2 9abd 469f bc3b 095e d3bc ddb1 18bd
000003a0: 56cc ebbb 7017 d3bc 4093 243d 22c1 e5bc
000003b0: c337 883d 1752 17bd 4686 bf3c 6a81 b53d
000003c0: 2ebf 16bd 7b12 dcbc 853b 3b3d 9488 47bd
000003d0: c38f 973d 3446 3f3b a67b 5b3d 681f 40bd
000003e0: acca 003d bdfa 04bd 1ab3 4d3d f8db d9ba
000003f0: 4df9 133d 80e5 143d 21ed 33bd 5ea1 bb3d

bias f4 [128]
0.05551288 -0.030003615 -0.02259347 -0.024622275 0.018720966 0.005107046 -0.005842287 0.04290916
-0.028841399 -0.036938414 0.06292233 0.08650762 -0.035092957 0.00039438717 0.054177895 0.005100338
-0.043467134 0.013587663 0.06139482 -0.06931954 -0.077669 -0.055652514 -0.038828943 0.07716288
0.03465321 -0.018939132 0.021835433 0.052835643 0.0528391 0.047456235 -0.014979217 0.046976432
-0.02414474 0.03533201 -0.085516125 -0.0018518185 -0.024881333 0.012576539 0.05519841 0.06531774
-0.049088985 -0.05578342 0.034748238 0.048459653 0.01552303 0.033888455 -0.032323092 -0.031449623
0.0796299 0.001265374 -0.05254853 0.056402143 0.022322858 -0.047762785 0.044115856 -0.05419356
0.061228707 0.019840006 -0.0014440101 0.037309796 -0.036078285 -0.023887414 0.096550465 -0.020771645
0.09027094 -0.05092652 -0.044990364 0.06542871 0.049654543 -0.072917834 -0.058406685 0.0701399
0.012094368 0.007991627 -0.071671546 -0.045832314 0.055324215 0.06495873 0.07410283 0.010725512
-0.043813333 0.034981973 0.027997319 0.058450878 0.034706593 -0.026511509 0.06604961 -0.03883283
-0.064644046 -0.047679577 -0.03303487 0.031456836 0.0077761756 0.049465984 -0.05826009 -0.040399782
-0.064488865 0.044992283 0.0652668 -0.018982496 0.0138829695 0.0021847012 0.039230164 -0.03900509
-0.03750782 -0.07531398 -0.012941405 -0.011987293 0.087036565 -0.05900845 0.037933305 0.007303753
0.0882663 0.010161109 0.011139189 0.019405715 0.020408405 0.010121138 -0.08216217 0.05338643
0.0655932 0.028979512 -0.009868052 0.03620972 0.03820323 0.008793511 -0.053014863 0.0924458
00000000: 7961 633d 24ca f5bc f115 b9bc a7b4 c9bc
00000010: b65c 993c 0259 a73b a870 bfbb 84c1 2f3d
00000020: cc44 ecbc bc4c 17bd 6cdd 803d e82a b13d
00000030: a2bd 0fbd c0c5 ce39 a4e9 5d3d bc20 a73b
00000040: 980a 32bd ca9e 5e3c 2379 7b3d 67f7 8dbd
00000050: ed10 9fbd e4f3 63bd 190b 1fbd 9207 9e3d
00000060: 86f0 0d3d 3d26 9bbc 39e0 b23c 306a 583d
00000070: d06d 583d 7861 423d 646b 75bc 5c6a 403d
00000080: 31cb c5bc 4cb8 103d 1423 afbd b8b8 f2ba
00000090: f0d3 cbbc d40d 4e3c ba17 623d 4fc5 853d
000000a0: 8811 49bd 287d 64bd 2b54 0e3d a17d 463d
000000b0: 4f54 7e3c 9fce 0a3d 3865 04bd 52d1 00bd
000000c0: 0015 a33d e8da a53a 213d 57bd ef05 673d
000000d0: 6dde b63c e9a2 43bd d4b2 343d 11fa 5dbd
000000e0: f4ca 7a3d 8287 a23c f044 bdba 28d2 183d
000000f0: d3c6 13bd 8aaf c3bc 40bc c53d 4c29 aabc
00000100: f8df b83d 5498 50bd d147 38bd 7dff 853d
00000110: 9062 4b3d f255 95bd d93b 6fbd 82a5 8f3d
00000120: 7527 463c 50ef 023c 88c8 92bd aaba 3bbd
00000130: a59b 623d 1509 853d 39c3 973d 0fba 2f3c
00000140: 9c75 33bd 4249 0f3d a25a e53c 306a 6f3d
00000150: 8028 0e3d aa2e d9bc 0545 873d 2c0f 1fbd
00000160: 1964 84bd a94b 43bd 924f 07bd e2d8 003d
00000170: 4acf fe3b d89c 4a3d 22a2 6ebd 3e7a 25bd
00000180: bd12 84bd d449 383d 9aaa 853d 2e81 9bbc
00000190: 6575 633c 342d 0f3b cfaf 203d cdc3 1fbd
000001a0: cda1 19bd 373e 9abd 3008 54bc 5a66 44bc
000001b0: 3a40 b23d d8b2 71bd f45f 1b3d 5254 ef3b
000001c0: f6c4 b43d c87a 263c 2581 363c bcf8 9e3c
000001d0: 872f a73c 21d3 253c a444 a8bd bbab 5a3d
000001e0: ba55 863d 7166 ed3c 9cad 21bc a550 143d
000001f0: fd7a 1c3d a912 103c 1d26 59bd 3954 bd3d

weight f4 [2, 128]
0.00542639 -0.06924024 0.0012978939 0.05277312 0.06592429 0.039593693 -0.044965234 -0.047512483
-0.057939894 0.009190045 -0.057228148 -0.05120655 -0.001095484 -0.05192229 -0.095586315 0.027751839
0.014859625 0.03464011 -0.05331847 -0.010889106 0.021144643 0.01975715 -0.092330046 -0.052572925
-0.08034502 -0.006433747 0.041643683 -0.05158923 0.0019889604 -0.0646892 0.009216476 0.017350273
0.01105876 -0.0671598 0.03271255 -0.079355836 -0.0024710838 0.029331498 0.068125494 -0.074183196
-0.071966276 0.042577554 0.008775109 -0.05653205 -0.016422138 -0.007434328 0.076765925 -0.039952423
-0.08498013 -0.015843451 -0.0029647304 0.001622987 0.04778392 0.043790154 0.0649036 0.01049399
-0.07033466 0.06935762 -0.0012845304 0.034857936 -0.082389295 0.0066175945 -0.045300316 -0.051151354
-0.03738388 -0.029833034 -0.05740211 0.072902516 -0.08200471 -0.021960104 -0.00801462 -0.09520003
0.06516534 -0.035030708 0.058047794 -0.011048788 0.008756496 0.06085454 -0.058874495 0.06380412
0.053904448 0.045870606 0.05125625 0.01535656 -0.031820424 0.034788147 -0.0010232199 0.028845947
-0.0607441 0.06289571 -0.008002267 -0.042570546 -0.09533496 -0.039193567 -0.061042473 -0.01710723
0.019307896 0.0143079 -0.045291927 0.036853444 0.038897008 0.044944465 -0.003851954 0.0014974046
0.004954987 0.038575828 -0.011767559 -0.045659833 -0.053236276 0.039206907 -0.06647119 0.063450865
-0.07804584 0.04568036 -0.010653029 -0.047440015 -0.06267054 -0.030894823 0.05785285 -0.02356068
-0.094378166 -0.01784591 0.0778548 -0.09422606 -0.031829353 0.06762614 -0.075999655 0.017027363
-0.035361253 0.01140054 0.07790501 -0.013306988 0.013337155 0.044195205 -0.032575972 -0.029373609
0.066752866 -0.052226715 0.07716283 0.011515796 6.995909e-05 0.009677248 0.08969411 0.0601501
0.01177532 0.021465948 0.058522724 0.050011158 0.0070685344 -0.05362626 -0.019377332 -0.025320366
-0.050282966 0.06475434 -0.0012144381 -0.007408782 0.053496163 0.06285976 0.025553942 0.09352065
0.028342053 0.0026548821 -0.041152507 0.07782935 -0.019044526 0.0031045517 0.0793 0.03372267
-0.05732132 0.025075646 -0.07286803 -0.0063236114 0.005255617 -0.033884816 -0.04670496 -0.038702033
0.089896984 0.0006706575 -0.041896388 0.07566779 -0.055109587 -0.021145936 0.051918082 0.025273694
-0.050077163 0.04002077 -0.021415483 -0.0025620675 0.085171424 -0.0334082 0.047599517 -0.05210546
0.090400726 0.017240968 -0.050363485 0.012786952 -0.03926822 0.037283454 -0.059241083 0.07718247
-0.056436706 -0.05609281 -0.005481418 0.080123276 0.033204395 -0.01657074 -0.040093064 0.000100412406
-0.029788794 0.024920695 -0.04467634 -0.032233708 -0.0466877 0.077557065 -0.06717081 -0.02090463
0.01744508 -0.024165982 0.092542164 -0.07313897 -0.021422956 0.0273357 -0.055399626 0.02698934
-0.01972595 0.06941013 -0.016484007 -0.0262294 0.009755686 0.06433392 -0.0456552 -0.048708647
-0.03622999 0.027682956 0.03486947 5.023647e-05 0.012325503 -0.04467661 0.05917792 0.008251748
0.063349575 -0.0349367 0.04195712 -0.028841551 -0.05659066 -0.06674566 -0.052163586 0.018769942
0.06865315 0.068367004 -0.051215395 0.02522673 0.07175122 0.059873506 -0.07099948 0.060174868
00000000: dccf b13b d4cd 8dbd 181e aa3a a128 583d
00000010: 5003 873d ff2c 223d 772d 38bd 739c 42bd
00000020: 6252 6dbd d891 163c 1068 6abd f6bd 51bd
00000030: 5896 8fba 78ac 54bd c2c2 c3bd d357 e33c
00000040: c975 733c cae2 0d3d 7864 5abd 3968 32bc
00000050: 8837 ad3c bfd9 a13c 8917 bdbd b556 57bd
00000060: ee8b a4bd 2ed2 d2bb 9192 2a3d 3a4f 53bd
00000070: 3859 023b c57b 84bd b400 173c 2922 8e3c
00000080: cd2f 353c 148b 89bd 98fd 053d 5085 a2bd
00000090: e8f1 21bb 9c48 f03c 6185 8b3d 5ced 97bd
000000a0: 0e63 93bd cd65 2e3d 7ac5 0f3c 278e 67bd
000000b0: b887 86bc aa9b f3bb 7437 9d3d 27a5 23bd
000000c0: 100a aebd 20ca 81bc ec4b 42bb 68ba d43a
000000d0: 12b9 433d 4e5d 333d 2eec 843d fcee 2b3c
000000e0: 9e0b 90bd 5e0b 8e3d b05d a8ba 32c7 0e3d
000000f0: b8bb a8bd 68d8 d83b d38c 39bd 1584 51bd
00000100: d71f 19bd 6864 f4bc 7a1e 6bbd ea4d 953d
00000110: 16f2 a7bd ade5 b3bc c14f 03bc 3cf8 c2bd
00000120: 6875 853d 5c7c 0fbd 86c3 6d3d fa05 35bc
00000130: 6877 0f3c 9c42 793d 6226 71bd bcab 823d
00000140: e9ca 5c3d d1e2 3b3d 13f2 513d 159a 7b3c
00000150: 2256 02bd 047e 0e3d 901d 86ba 564e ec3c
00000160: cece 78bd 77cf 803d f11b 03bc 745e 2ebd
00000170: fa3e c3bd 6f89 20bd ac07 7abd 7624 8cbc
00000180: 982b 9e3c af6b 6a3c 0784 39bd a3f3 163d
00000190: 7852 1f3d b017 383d 1071 7cbb 9044 c43a
000001a0: 725d a23b b001 1e3d b8cc 40bc ce05 3bbd
000001b0: 480e 5abd 6c97 203d 0c22 88bd 87f2 813d
000001c0: 7fd6 9fbd 541b 3b3d 0b8a 2ebc 7650 42bd
000001d0: 6959 80bd 2417 fdbc 1cf7 6c3d 5402 c1bc
000001e0: 5749 c1bd 9631 92bc 5672 9f3d 98f9 c0bd
000001f0: 7f5f 02bd 937f 8a3d b5a5 9bbd f87c 8b3c
00000200: f6d6 10bd 55c9 3a3c a98c 9f3d 8e05 5abc
00000210: 1584 5a3c 0806 353d 626e 05bd eca0 f0bc
00000220: bab5 883d aeeb 55bd 8c07 9e3d c0ac 3c3c
00000230: 00b7 9238 528d 1e3c 8cb1 b73d f45f 763d
00000240: 46ed 403c 5bd9 af3c 86b5 6f3d 80d8 4c3d
00000250: 2a9f e73b 36a7 5bbd 36bd 9ebc a86c cfbc
00000260: 83f5 4dbd ec9d 843d c82d 9fba 5ec5 f2bb
00000270: cb1e 5b3d 9ebc 803d 8056 d13c c187 bf3d
00000280: 982d e83c 88fd 2d3b 888f 28bd ff64 9f3d
00000290: 4403 9cbc bc75 4b3b 0a68 a23d c820 0a3d
000002a0: c3c9 6abd 716b cd3c d53b 95bd 4c36 cfbb
000002b0: 5037 ac3b ceca 0abd b34d 3fbd 0686 1ebd
000002c0: e91b b83d 10cf 2f3a 8c9b 2bbd b7f7 9a3d
000002d0: 97ba 61bd 3e3a adbc 0ea8 543d c70a cf3c
000002e0: b61d 4dbd d2ec 233d 866f afbc 5ce8 27bb
000002f0: 5b6e ae3d 09d7 08bd b6f7 423d 896c 55bd
00000300: 0424 b93d ee3c 8d3c f149 4ebd 5d80 513c
00000310: b7d7 20bd 89b6 183d c7a6 72bd d811 9e3d
00000320: 2d2a 67bd 93c1 65bd 789d b3bb ac17 a43d
00000330: 5501 083d 5cbf 87bc a038 24bd 8094 d238
00000340: a107 f4bc 7c26 cc3c 8afe 36bd 7e07 04bd
00000350: 9a3b 3fbd 3dd6 9e3d da90 89bd 3040 abbc
00000360: fce8 8e3c bdf7 c5bc bf86 bd3d e2c9 95bd
00000370: 327f afbc 1eef df3c b8ea 62bd c018 dd3c
00000380: 5198 a1bc e626 8e3d 7809 87bc 0adf d6bc
00000390: 50d6 1f3c 81c1 833d f200 3bbd b882 47bd
000003a0: e665 14bd 5ec7 e23c 4ad3 0e3d 00b5 5238
000003b0: e8f0 493c d2fe 36bd 8c64 723d 5732 073c
000003c0: 6cbd 813d c919 0fbd 3bdb 2b3d 1e45 ecbc
000003d0: 9ccb 67bd f3b1 88bd 7ca9 55bd 6cc3 993c
000003e0: 069a 8c3d 0004 8c3d 3cc7 51bd 4aa8 ce3c
000003f0: 4ef2 923d ec3d 753d 2d68 91bd ec79 763d

bias f4 [2]
0.02929435 -0.074206464
00000000: b4fa ef3c 8ff9 97bd
