assignment1/Rong/finish_model.pkl (torch_old, 111287 bytes, 6 tensors)

weight f4 [128, 66]
0.0012201315 -0.0013974234 -0.0023819064 0.0011462035 -0.0022440618 0.004131741 -0.0032641683 -0.0004526712
0.00045305205 0.0013387282 -0.002395028 0.0030233145 0.00052347954 -0.00014148193 -0.004863087 -0.00074088515
-0.0013538904 -0.0020652176 -0.0009809849 0.0022812332 -0.0004981803 -0.0011224074 -0.00019225711 0.0015584583
-0.0017156176 -0.0012892951 0.0036384328 0.004057318 0.0012690428 -0.00019360543 -0.0031295859 0.0041406616
-0.0017529143 -0.0023855185 -0.0005005667 -0.0007804622 0.0032443628 -9.478466e-05 0.0009874596 -0.0022363716
0.0016841711 -0.0017220385 -0.0018723505 -0.00072049035 -0.0012425069 0.00049324194 -0.00049560453 -0.0013034362
-0.002171469 -0.00073091075 -9.5018186e-07 0.001805976 -0.0045986082 0.0011573144 -0.0011201089 0.0010659609
-0.0028201304 -0.0004806908 -0.0017067613 -0.00033963076 -0.0046040337 -0.0015704777 -0.00021973689 -0.00022535102
0.0018404839 -0.00047956343 -0.006656888 -0.0006642542 -0.0049574375 -0.003252656 -0.0178499 -0.014252209
-0.0031493325 -0.00069772115 -0.002246953 -0.0063412357 -0.0023756207 -0.004796334 0.0060080546 -0.010760134
0.007697724 -0.01089314 -0.0029970973 -0.009247301 0.005955619 -0.010239576 0.0014612942 -0.002483798
-0.0053748875 -0.005253295 -0.010546923 -0.00030262244 -0.0044005397 0.0018501516 -0.0030868736 -0.015043135
0.0029294675 -0.0020305673 -0.0068744225 -0.001577278 0.011512938 0.002571341 0.007348699 -0.0041032336
0.0004239368 0.0043230844 0.0027049016 -0.003698129 -0.008780763 -0.0010788242 0.0027652443 -0.0028101893
0.004016294 0.0013637634 -0.0019375368 0.0023483387 0.00023823645 0.0016870691 0.0015248258 -0.005098136
-0.000459735 0.0014021745 0.003792706 0.0019873763 -0.0034245588 0.0002912162 -0.0016495497 0.0023980741
0.0017897796 0.0020409357 0.0011470467 -0.0016776359 0.100750916 -0.018978827 -0.03383573 0.021676298
0.12501876 0.07401248 -0.008184417 -0.0238198 0.024275705 0.011648787 0.0034625898 0.08092355
-0.05489991 0.08290169 -0.064333424 0.10396701 -0.022554899 0.07042254 -0.053123504 0.12756158
-0.059165575 -0.0075472803 -0.02446276 0.02043276 0.0037541338 -0.01624951 0.007937562 -0.044931073
0.004299489 0.06004645 -0.0341732 -0.01840589 0.04532803 -0.026027123 -0.016958844 -0.03056701
-0.026980937 -0.022066038 -0.0124228 -0.00055208796 -0.02067316 -0.014347627 0.02567873 -0.0132958535
-0.01171506 0.0007103076 -0.0053662583 0.0030355086 0.0019285104 -0.002038883 0.0006918408 0.0024244934
0.0029076592 -0.0040121404 -0.0010864091 -0.003984148 -0.0028134054 0.0015823587 -0.002814184 -0.0032077995
0.0021704354 -0.0037011667 -0.00403423 -0.0024671156 0.0015097598 0.0027168666 -0.011251249 0.00080497214
0.00044734235 -0.007913837 -0.018666146 -0.003609888 0.00022813585 0.0030011553 -0.011329241 -0.006157881
0.0008327909 -0.017510619 -0.0038056453 -0.0054181386 -0.00080589345 -0.008585487 -0.0035994528 -0.018199075
0.0044891727 -0.015348674 0.0025556171 -0.008423505 -0.0076618963 -0.0019989982 -0.0119520845 -0.010761335
-0.004819343 0.00097522297 -0.0048281793 -0.016088167 -0.002946052 0.001707417 -0.007980115 -0.006869078
0.00525677 0.0016916066 0.01061502 0.0030641446 0.0023228447 -0.004720918 -0.0019547802 -0.0064276108
-0.0018849161 0.007722323 0.0027191692 -0.013060193 0.0012706126 -0.0006648833 -0.00015666639 0.00042416324
-0.0011827475 0.0016967295 0.0018137558 -0.0013746741 -0.0013057727 0.0039782273 0.0013142449 -0.0033896074
00000000: d2ec 9f3a c029 b7ba c219 1cbb 353c 963a
00000010: 1c11 13bb 8e63 873b a8eb 55bb 8054 edb9
00000020: 9e87 ed39 4478 af3a e7f5 1cbb cd22 463b
00000030: 1e3a 093a c45a 14b9 885a 9fbb f637 42ba
00000040: 0675 b1ba 9a58 07bb 6494 80ba be80 153b
00000050: 5098 02ba be1d 93ba a098 49b9 2f45 cc3a
00000060: 93de e0ba 91fd a8ba c672 6e3b 40f3 843b
00000070: 0356 a63a 9002 4bb9 bd19 4dbb 63ae 873b
00000080: 0bc2 e5ba 5c56 1cbb 7638 03ba ee97 4cba
00000090: 609f 543b 20c7 c6b8 a56d 813a 1790 12bb
000000a0: 68bf dc3a 06b6 e1ba a869 f5ba 4adf 3cba
000000b0: 9ddb a2ba e84c 013a 75eb 01ba 10d8 aaba
000000c0: 344f 0ebb 979a 3fba 0010 7fb5 80b6 ec3a
000000d0: ecaf 96bb 07b1 973a 9ed0 92ba b6b7 8b3a
000000e0: f0d1 38bb 3a05 fcb9 68b5 dfba 7810 b2b9
000000f0: 6fdd 96bb 7dd8 cdba 2c69 66b9 344c 6cb9
00000100: 643c f13a ea6d fbb9 0622 dabb 5821 2eba
00000110: 0072 a2bb 832a 55bb f439 92bc 1982 69bc
00000120: 0865 4ebb 46e7 36ba 9e41 13bb 24ca cfbb
00000130: 4db0 1bbb 912a 9dbb 37df c43b 464b 30bc
00000140: 303d fc3b 2479 32bc f36a 44bb fe81 17bc
00000150: 5a27 c33b e5c3 27bc e688 bf3a 37c7 22bb
00000160: d31f b0bb d523 acbb 00cd 2cbc 4ca9 9eb9
00000170: 6732 90bb c980 f23a 254d 4abb 7b77 76bc
00000180: 4ffc 3f3b 4413 05bb d642 e1bb abbc ceba
00000190: c3a0 3c3c f283 283b 5bcd f03b 6b74 86bb
000001a0: d643 de39 a9a8 8d3b b844 313b 4f5c 72bb
000001b0: 30dd 0fbc 5567 8dba 1a39 353b 272b 38bb
000001c0: 1e9b 833b 4ec0 b23a f2f4 fdba 96e6 193b
000001d0: 1ccf 7939 a520 dd3a aadc c73a 440e a7bb
000001e0: 9608 f1b9 2bc9 b73a 0c8f 783b a43e 023b
000001f0: 906e 60bb 60ae 9839 b435 d8ba 0229 1d3b
00000200: 0a97 ea3a 38c1 053b 8058 963a 1fe4 dbba
00000210: 7f56 ce3d 7c79 9bbc 5697 0abd 7e92 b13c
00000220: eb04 003e db93 973d ef17 06bc be21 c3bc
00000230: d8dd c63c 8eda 3e3c 9eec 623b 3fbb a53d
00000240: bade 60bd 5cc8 a93d 3ec1 83bd a8ec d43d
00000250: 0dc5 b8bc b139 903d 0898 59bd 819f 023e
00000260: 9a57 72bd 2d4f f7bb 2066 c8bc 9a62 a73c
00000270: ea07 763b b11d 85bc 8c0c 023c a509 38bd
00000280: bae2 8c3b 44f3 753d 33f9 0bbd f3c7 96bc
00000290: e2a9 393d d536 d5bc 46ed 8abc ab67 fabc
000002a0: 2007 ddbc d6c3 b4bc 0089 4bbc ffb9 10ba
000002b0: c25a a9bc 4f12 6bbc 335c d23c dad6 59bc
000002c0: 86f0 3fbc f033 3a3a 70d7 afbb 62ef 463b
000002d0: 12c6 fc3a c89e 05bb a65c 353a 40e4 1e3b
000002e0: 6d8e 3e3b 4678 83bb d765 8eba 758d 82bb
000002f0: 1c61 38bb 2667 cf3a 2c6e 38bb f239 52bb
00000300: dd3d 0e3b 468f 72bb 9331 84bb 55af 21bb
00000310: 22e3 c53a 750d 323b 2957 38bc c404 533a
00000320: 4689 ea39 0aa9 01bc bfe9 98bc df93 6cbb
00000330: c037 6f39 08af 443b 489e 39bc 0dc8 c9bb
00000340: a74f 5a3a 6e72 8fbc 2268 79bb a48a b1bb
00000350: 9842 53ba 24aa 0cbc cce4 6bbb 3a16 95bc
00000360: e919 933b 0179 7bbc 247c 273b be02 0abc
00000370: a510 fbbb a001 03bb add2 43bc 4f50 30bc
00000380: 94eb 9dbb 1ba6 7f3a b435 9ebb 55cb 83bc
00000390: 8d12 41bb 68cb df3a 07bf 02bc 0116 e1bb
000003a0: fc40 ac3b e6b8 dd3a 9fea 2d3c d1cf 483b
000003b0: de3a 183b eeb1 9abb c51b 00bb b59e d2bb
000003c0: 4a0f f7ba 8a0b fd3b 1734 323b 6bfa 55bc
000003d0: af8a a63a 904b 2eba d046 24b9 3a62 de39
000003e0: 6c06 9bba cb64 de3a 8cbb ed3a 692e b4ba
000003f0: 7626 abba ca5b 823b be42 ac3a 2d24 5ebb

bias f4 [128]
0.0020673843 0.00817705 -0.017366927 0.012843423 -0.010685061 -0.01938539 -0.011612126 0.02005851
0.004347092 -0.016232789 -0.003925933 0.001787482 -0.005730957 -0.02398355 -0.0010052628 -0.033282883
0.0053594843 -0.014441908 0.019819034 -0.0011185047 -0.0015238593 -0.0027726726 0.06494417 0.07828231
-0.0033740087 -0.0068774214 -0.0073884083 0.031999707 -0.0260503 -0.0030750916 -0.002106894 -0.0012507648
0.04941482 0.041931584 0.00011498225 0.0074559567 -0.015557374 0.005404262 -0.0009477269 -0.00024754534
-0.011470418 0.0855272 -0.00032410107 -0.043199908 0.09831729 -0.027496165 0.0013005391 0.02812526
-0.016275208 -0.0034142784 0.09048752 -0.022658296 -0.023443583 0.05533066 0.062068116 -0.03299647
-0.0024552033 0.076160654 0.08534015 0.09434967 -0.021641273 -0.008790977 -0.02158929 -0.0006413263
-0.029162526 0.09920334 -0.002175433 -0.024749557 0.08962354 -0.028769365 -0.031611096 0.028224736
0.046217095 -0.025462069 -0.022589816 -0.028441321 0.061160628 0.05347079 -0.029121334 -0.008523756
0.019131364 0.00024216634 -0.017404852 -0.0026394082 -0.002049643 0.07575571 -0.030911226 -0.0015173346
0.0022478483 -0.026859883 -0.014350647 0.0015880596 -0.028308535 -0.0036622179 -0.004180989 -0.003240419
0.06499716 0.028991042 -0.0020622525 -0.001977182 -0.011495101 0.020522851 -0.002157371 -0.0036799249
-0.0069245338 -0.0053716 -0.00016050969 -0.004365866 0.0012887357 0.0007900139 0.067099355 -0.008573047
-0.023254838 -0.01678899 -0.010882556 0.08158851 -0.020373845 0.0023836894 -0.032800123 0.048039105
0.0072770696 0.0010785548 -0.018828958 0.005079341 -0.029386302 -0.008519283 0.07799866 -0.016420262
00000000: f47c 073b 09f9 053c 1645 8ebc 386d 523c
00000010: 6510 2fbc 1cce 9ebc c940 3ebc bf51 a43c
00000020: 0d72 8e3b a0fa 84bc 1da5 80bb f149 ea3a
00000030: c0ca bbbb 2679 c4bc 06c3 83ba a253 08bd
00000040: 9d9e af3b c19d 6cbc 875b a23c ca9a 92ba
00000050: 3cbc c7ba bab5 35bb 7301 853d 7a52 a03d
00000060: 791e 5dbb fe5b e1bb 761a f2bb 2012 033d
00000070: 7067 d5bc 7a87 49bb d113 0abb b4f0 a3ba
00000080: 3267 4a3d 74c0 2b3d a022 f138 1951 f43b
00000090: 5be4 7ebc 3c16 b13b e070 78ba f9c8 81b9
000000a0: 6cee 3bbc e228 af3d 1cec a9b9 63f2 30bd
000000b0: 935a c93d a33f e1bc da76 aa3a f266 e63c
000000c0: 9653 85bc 16c2 5fbb 8551 b93d e49d b9bc
000000d0: c20c c0bc 67a2 623d 233b 7e3d 4e27 07bd
000000e0: 7ae7 20bb 1efa 9b3d d1c6 ae3d 663a c13d
000000f0: 0a49 b1bc 0808 10bc 06dc b0bc ae1e 28ba
00000100: 40e6 eebc 1f2b cb3d b691 0ebb 95bf cabc
00000110: 8c8c b73d bbad ebbc a37a 01bd 9037 e73c
00000120: 234e 3d3d d495 d0bc 470e b9bc c6fd e8bc
00000130: 9183 7a3d 3004 5b3d dd8f eebc 39a7 0bbc
00000140: 61b9 9c3c 08ee 7d39 9f94 8ebc ecf9 2cbb
00000150: 4e53 06bb cf25 9b3d 8a39 fdbc 4de1 c6ba
00000160: a350 133b 4209 dcbc fa1e 6bbc 7026 d03a
00000170: 4de7 e7bc d201 70bb ae00 89bb 365d 54bb
00000180: 3b1d 853d 9f7e ed3c db26 07bb 9c93 01bb
00000190: f355 3cbc 8a1f a83c ae62 0dbb e52a 71bb
000001a0: 33e7 e2bb 3f04 b0bb 7e4e 28b9 8a0f 8fbb
000001b0: cbea a83a ef18 4f3a 636b 893d f775 0cbc
000001c0: ee80 bebc 1089 89bc c04c 32bc e017 a73d
000001d0: 0de7 a6bc ac37 1c3b 6c59 06bd a7c4 443d
000001e0: 7c74 ee3b 4b5e 8d3a 303f 9abc 9a70 a63b
000001f0: 8bbb f0bc 7694 0bbc c3bd 9f3d c983 86bc

weight f4 [128, 128]
0.0003574185 -0.0018219531 -0.0016781206 0.00033308385 -0.0024956488 -0.00044732937 -0.0022931234 -0.0009425294
-0.0019836912 -0.0042601996 0.0011911979 -0.00026179472 0.0023372113 0.003980085 -0.0014047808 0.004199277
-0.0003431468 -0.0032720484 -0.00089517364 -0.000418312 -0.001226278 -0.00060998707 -0.0036052524 -0.00019935338
-0.0005951006 0.0031638187 -0.0012723038 -0.0019769697 -0.0032574136 -0.0005803262 -8.6412474e-05 0.00090175733
8.832797e-05 -0.003111634 0.004700416 -0.0007620244 0.0015998132 -0.00094705063 2.950686e-05 -0.002374712
-0.0013616878 0.0054207924 -0.0017159466 0.0006064498 0.002766311 -0.0029680247 0.0009042592 -0.0040760715
-0.0046317056 -0.0018453427 0.0031757616 -0.001091804 0.003553145 0.0012037843 -0.0017524501 0.0038581972
-0.0011589043 0.0037891641 -0.0018810857 0.0008539887 2.2829336e-05 0.00046484178 -0.00016228796 -0.0041661877
0.0013400938 -0.0029029595 -0.0012274901 -0.003542628 0.0060801096 0.0013465834 -0.004334832 -0.0006966729
-0.0016656767 -0.0034644317 -0.004587664 -0.0039006383 -0.0014450636 -0.00090833433 -1.5230093e-05 -0.0014948326
0.0040703095 -0.00410311 -0.0019295419 -0.00014577832 0.0014723253 -0.0017428142 -0.0019272809 0.0012045815
-0.0007512509 -0.0011355858 -0.000872397 -0.0019119272 0.00244885 -0.004071861 0.0008399671 0.0044286326
-0.0018630391 -0.002392928 -0.0033571017 -0.0012114492 0.0006779395 -0.004091167 -6.6441717e-06 -0.0012827714
-0.0022966946 -4.4323388e-06 0.0012652796 -0.0011295032 0.0038857816 0.001977152 -0.002832084 0.0017051327
-0.0037393468 -0.0032727686 0.0014448038 2.3333123e-06 -0.0004125621 0.00022568536 0.00019479111 -0.001119136
-0.0034444684 -0.0007761051 -0.0011187098 -0.0021243852 -0.002803469 0.003143095 0.001440076 -0.0006602583
-0.002177438 0.0014202977 -0.006320432 0.0050263447 -0.0030344992 -0.0015961997 -0.0008847753 0.00011079316
-0.00057716377 0.0036068151 -0.0005923849 0.00039860577 0.0009805363 -0.0015061834 -0.0006264025 -0.0006154871
0.00019101606 0.0015149085 -0.0016312848 -0.0037937907 -0.0013835642 -0.0021095162 0.007916899 0.011698211
0.001997563 0.0019848081 0.0010511696 -0.0011521853 -0.00081884896 0.004696366 -0.003964684 0.0017492011
0.0060816268 0.0008159918 0.0023906385 5.5500597e-05 0.0004319009 0.0028100403 -0.0041199243 -0.0010759563
-0.0037879336 0.009759702 0.003967655 -0.009567031 0.017693598 -0.008265631 -0.0036596511 -0.0009403742
0.0017205883 -0.0027695142 0.014494846 -0.004744868 -0.0011309097 0.0031962602 0.0055868193 -0.0036526104
0.0022496996 0.010939887 0.012524557 0.01998273 0.0018568872 -0.0033891122 -0.0105697755 -0.0024579254
-0.0010663511 0.013719943 0.0026766588 -0.0058585517 0.01510794 -0.0021476056 -0.0050427536 -0.0012104558
0.0018029183 -0.005671585 0.00011358307 -0.0030613348 0.012101173 0.004384764 -0.0051096007 -0.00039214897
0.0006240462 -0.00045625272 -0.0011094123 -0.00022706244 -0.0018772737 0.010774504 -0.005086463 0.0006037605
0.00039344013 -0.010133497 0.00307832 -0.0016814268 -0.011356747 0.0005260862 -0.0011796051 -0.0023163136
0.009135745 0.005705877 0.0010005399 -0.0003514979 -0.005113449 0.0028125218 -0.004528164 -0.00095775025
0.0025580989 -0.002130597 -0.0009468888 0.000290378 0.0003126033 -0.0013088597 0.008331261 0.0035290485
-0.00868856 0.002104689 0.00085623644 0.011390264 0.0008635968 0.0027765778 -0.004638345 0.0018299529
-0.0026517948 0.00011846691 0.0006392491 0.0005536271 -0.00093907607 0.0014753958 0.011607946 0.0005205878
00000000: e663 bb39 9ace eeba 62f4 dbba c2a1 ae39
00000010: 0a8e 23bb 8887 eab9 3a48 16bb 1414 77ba
00000020: d100 02bb 2599 8bbb f821 9c3a 7e41 89b9
00000030: e62b 193b 5f6b 823b 9f20 b8ba 179a 893b
00000040: 62e8 b3b9 dd6f 56bb 16aa 6aba e350 dbb9
00000050: 10bb a0ba 8ae7 1fba 1946 6cbb 8409 51b9
00000060: 8600 1cba 1258 4f3b 6ec3 a6ba 0c90 01bb
00000070: 557a 55bb 0821 18ba 5838 b5b8 e963 6c3a
00000080: b83c b938 8eec 4bbb f205 9a3b 98c2 47ba
00000090: d3b0 d13a 7e43 78ba 8085 f737 0ea1 1bbb
000000a0: a97a b2ba e7a0 b13b 9de9 e0ba 28fa 1e3a
000000b0: ff4a 353b 3183 42bb cf0b 6d3a 9190 85bb
000000c0: 90c5 97bb 6ddf f1ba 7020 503b dd1a 8fba
000000d0: e2db 683b 4cc8 9d3a 78b2 e5ba cfd9 7c3b
000000e0: 60e6 97ba a053 783b c38e f6ba 36de 5f3a
000000f0: a081 bf37 02b6 f339 d82b 2ab9 8484 88bb
00000100: 16a6 af3a 943f 3ebb bce3 a0ba 6f2b 68bb
00000110: a83b c73b d77f b03a 350b 8ebb eda0 36ba
00000120: d652 daba 850b 63bb 1d54 96bb daa1 7fbb
00000130: 4a68 bdba 491d 6eba c084 7fb7 42ee c3ba
00000140: 3b60 853b 6273 86bb afe8 fcba 12dc 18b9
00000150: 0afb c03a 246f e4ba d19c fcba 0ce3 9d3a
00000160: 98ef 44ba f0d7 94ba 92b1 64ba a299 faba
00000170: e37c 203b 3f6d 85bb 3d31 5c3a 101e 913b
00000180: 3831 f4ba acd2 1cbb d202 5cbb 7dc9 9eba
00000190: c0b7 313a 320f 86bb 00f1 deb6 aa22 a8ba
000001a0: 2484 16bb 80b9 94b6 bdd7 a53a d70b 94ba
000001b0: 99a8 7e3b 1b93 013b 7c9a 39bb c27e df3a
000001c0: d40f 75bb f27b 56bb 925f bd3a 0096 1c36
000001d0: 264d d8b9 f4a5 6c39 d740 4c39 f9af 92ba
000001e0: 97bc 61bb 8873 4bba aca1 92ba 4539 0bbb
000001f0: 68ba 37bb 62fc 4d3b efc0 bc3a 2f15 2dba
00000200: 59b3 0ebb 4829 ba3a a01b cfbb 09b4 a43b
00000210: 73de 46bb 9337 d1ba 44f0 67ba a059 e838
00000220: ce4c 17ba 5160 6c3b 474a 1bba f6fb d039
00000230: 5785 803a 216b c5ba 2935 24ba a458 21ba
00000240: 7c4b 4839 e58f c63a d6d0 d5ba 3fa1 78bb
00000250: b658 b5ba cf3f 0abb e2b5 013c daa9 3f3c
00000260: 8ce9 023b 8e13 023b 66c7 893a ec04 97ba
00000270: 06a8 56ba f9e3 993b 2eea 81bb 7345 e53a
00000280: 6248 c73b 48e8 553a 42ac 1c3b 50c9 6838
00000290: c270 e239 a728 383b 6e00 87bb 1a07 8dba
000002a0: fb3e 78bb 28e7 1f3c 1a03 823b 09bf 1cbc
000002b0: 2af2 903c 926c 07bc c2d6 6fbb 7283 76ba
000002c0: 5d85 e13a bd80 35bb ca7b 6d3c d67a 9bbb
000002d0: 083b 94ba 5978 513b a311 b73b a260 6fbb
000002e0: b26f 133b 363d 333c cd33 4d3c d2b2 a33c
000002f0: cc62 f33a de1b 5ebb da2c 2dbc 2515 21bb
00000300: cec4 8bba 9dc9 603c e26a 2f3b 18f9 bfbb
00000310: 4b87 773c d8be 0cbb af3d a5bb 28a8 9eba
00000320: e64f ec3a b4d8 b9bb 7233 ee38 ada0 48bb
00000330: 0044 463c 11ae 8f3b 706e a7bb 5899 cdb9
00000340: 0897 233a 3435 efb9 b369 91ba 9c17 6eb9
00000350: da0e f6ba 8c87 303c 58ac a6bb ae45 1e3a
00000360: a446 ce39 f806 26bc a4bd 493b 5263 dcba
00000370: a611 3abc 0ce9 093a fb9c 9aba 4bcd 17bb
00000380: 17ae 153c 5ef8 ba3b 8c24 833a 4049 b8b9
00000390: b88e a7bb 4952 383b fe60 94bb 8811 7bba
000003a0: c7a5 273b 7ca1 0bbb a238 78ba e03d 9839
000003b0: e8e4 a339 0b8e abba d77f 083c 9c47 673b
000003c0: 765a 0ebc d2ee 093b 0e75 603a 3b9e 3a3c
000003d0: 0063 623a 3ff7 353b 42fd 97bb 08db ef3a
000003e0: bcc9 2dbb 7071 f838 4893 273a 4921 113a
000003f0: 542c 76ba 1162 c13a 412f 3e3c 0e78 083a

bias f4 [128]
0.00077569124 0.02483788 0.018285673 -0.014076632 -0.021617047 -0.00790092 0.0041495087 -0.005536511
0.00085855136 -0.0007385133 -0.007834378 -0.0031647272 -0.017123638 -0.004789331 0.049482904 0.0022867704
-0.00766099 -0.0014662092 -0.007212252 -0.0017167835 -0.0019332241 0.01357856 -0.01354946 0.002733831
0.11963586 0.0064331056 -0.0137046715 0.009971129 -0.0007037548 -0.013377491 0.011990301 0.11444511
-0.010970942 -0.012440031 -0.003541975 -0.015667202 0.0020399909 0.0014135883 -0.017967636 0.009671347
0.061074134 -0.0049211844 -0.006295527 -0.017665427 9.823425e-05 0.1487801 0.0008455416 -0.0015017175
-0.0031218657 -0.010288458 -0.012355021 -0.0026618782 -0.0010983942 -0.0017287887 0.0040719155 -0.008697059
-0.010137919 0.108240254 0.000777513 -0.007328328 -0.004467813 -0.00084527314 0.14233817 -0.0009547437
0.00086456444 0.0012100072 -0.004278651 -0.011666085 -0.0145962015 0.15287621 -0.0027923044 0.15747042
-0.0064642816 -0.005693152 0.0118560055 0.003810273 0.0046676625 -0.0075480156 0.113441914 -0.009506836
-0.019863863 -0.0024997487 0.10771837 -0.012701983 0.00065988186 0.00044185005 0.17903613 -0.010776303
-0.008855058 0.087193236 0.062769346 -0.0058398163 -0.01003165 -0.013067916 -0.02343554 0.0015161841
-0.004971824 -0.013904739 0.13281901 -0.0003257496 -0.0044146394 0.001984562 0.0838189 -0.014021592
-0.00092119165 0.10836194 -0.003912043 0.0036886213 0.0021837153 -0.0033823252 -0.0015715514 0.002717837
-0.00643328 0.005150903 -0.01001762 -0.0129998615 0.00043852127 -0.0015535572 -0.0010310133 -0.007852208
-0.0041737836 0.15922612 0.0065487637 -0.0038002 0.14873655 -0.007631926 -0.0015167503 -0.0039690593
00000000: c257 4b3a cf78 cb3c d6cb 953c ada1 66bc
00000010: 3c16 b1bc dc72 01bc 9af8 873b 9f6b b5bb
00000020: 6810 613a ca98 41ba c35b 00bc 5067 4fbb
00000030: df46 8cbc d2ef 9cbb 96ae 4a3d a4dd 153b
00000040: 0b09 fbbb d12d c0ba c154 ecbb b205 e1ba
00000050: 3d64 fdba 9c78 5e3c 8efe 5dbc 132a 333b
00000060: a503 f53d cdcc d23b 8f89 60bc f25d 233c
00000070: 2f7c 38ba 442d 5bbc f872 443c 3362 ea3d
00000080: 77bf 33bc 46d1 4bbc 7b20 68bb 8158 80bc
00000090: 5eb1 053b 2748 b93a dd30 93bc 9274 1e3c
000000a0: df28 7a3d e341 a1bb b54a cebb 16b7 90bc
000000b0: 1d03 ce38 cf59 183e 56a7 5d3a 47d5 c4ba
000000c0: 3798 4cbb ec90 28bc b76c 4abc e872 2ebb
000000d0: fef7 8fba 8698 e2ba b46d 853b 1c7e 0ebc
000000e0: 8419 26bc 11ad dd3d 04d2 4b3a 7922 f0bb
000000f0: bb66 92bb 5295 5dba 19c1 113e c447 7aba
00000100: f0a3 623a 1b99 9e3a ed33 8cbb 1b23 3fbc
00000110: e824 6fbc 958b 1c3e 18ff 36bb ed3f 213e
00000120: 53d2 d3bb 9f8d babb b13f 423c c6b5 793b
00000130: 31f3 983b 5855 f7bb 3c54 e83d 8fc2 1bbc
00000140: 8ab9 a2bc d3d2 23bb 739b dc3d fa1b 50bc
00000150: ecfb 2c3a 1ca8 e739 3f55 373e 178f 30bc
00000160: ce14 11bc 5e92 b23d 378d 803d ee5b bfbb
00000170: ca5b 24bc d01a 56bc e4fb bfbc b2ba c63a
00000180: afea a2bb b4d0 63bc b501 083e 5fc9 aab9
00000190: aea8 90bb 6d0f 023b 3ea9 ab3d d2ba 65bc
000001a0: 207c 71ba ddec dd3d 9830 80bb ccbc 713b
000001b0: aa1c 0f3b 00aa 5dbb 84fc cdba bd1d 323b
000001c0: 44ce d2bb e8c8 a83b f220 24bc 5ffd 54bc
000001d0: 54e9 e539 bba0 cbba 1123 87ba 8ca6 00bc
000001e0: 3cc4 88bb 2c0c 233e 0397 d63b c70c 79bb
000001f0: 654e 183e 3c15 fabb b2cd c6ba e20e 82bb

weight f4 [2, 128]
0.0008682915 0.03922301 0.017709155 -0.12822999 -0.0977243 -0.11077558 -0.017204775 -0.10119801
-0.006609571 -0.057324115 -0.1382889 -0.11775539 -0.107966624 -0.051010672 0.082892284 -0.009747136
-0.15046993 0.0017875672 -0.014991327 -0.01701034 -0.06826283 0.024551945 -0.1321881 -0.017480453
0.22283077 -0.036785126 -0.133518 0.003660829 -0.031381074 -0.11894251 -0.22101389 0.20492813
-0.16968039 -0.16341642 -0.019360382 -0.099103115 0.0016614795 -0.0017280056 -0.12469834 0.010242427
0.114995 -0.022882001 -0.011834546 -0.13535666 -0.028720591 0.2573611 -0.037054673 -0.059203383
-0.00041473587 -0.18431425 -0.15793653 -0.021624612 -0.02925223 -0.055208802 0.0008320135 -0.16468515
-0.18204455 0.20429638 -0.009727644 -0.109184675 -0.08756355 -0.0031944048 0.23786698 -0.0015930731
-0.023097312 -0.012193496 -0.09369604 -0.14969054 -0.13028957 0.26459292 -0.017924655 0.2502077
-0.11035716 -0.0150576085 0.018517494 -0.031314004 0.00015834332 -0.10999936 0.2013772 -0.10967846
-0.09138356 -0.020030672 0.21279235 -0.21984859 -0.060542665 -0.04958075 0.29557723 -0.14798945
-0.075317994 0.16814223 0.11311167 -0.09180601 -0.06999061 -0.12745704 -0.13571855 -0.014275908
-0.01563102 -0.12699798 0.23073883 -0.036801185 -0.080045596 -0.16011907 0.16109839 -0.17216167
-0.029270919 0.20028487 -0.104079545 -0.046615772 0.0026869988 -0.17106037 -0.02774671 -0.0029408573
-0.08257637 0.004773604 -0.15290034 -0.181663 -0.0017466493 0.0009960675 -0.043623615 -0.15469107
-0.029056735 0.2518297 -0.0010062684 -0.016770512 0.24680446 -0.08084877 0.0040984093 -0.07444936
-0.00039571832 -0.037437864 -0.021529224 0.13017897 0.13196202 0.11227853 0.015474693 0.09760098
0.004434425 0.064040236 0.13830473 0.11803214 0.12417141 0.05166552 -0.08210147 0.008527428
0.1354414 0.0019106766 0.014389019 0.01177373 0.07584786 -0.014811818 0.14183974 0.01702369
-0.21753989 0.04600413 0.14810771 -0.004167187 0.03289417 0.119081244 0.2176427 -0.20491862
0.16044754 0.115674905 0.016679233 0.09817633 -0.0011807671 0.011219181 0.13063625 -0.009966455
-0.11457259 0.051337823 0.012654462 0.12655713 0.03863674 -0.2489456 0.05870427 0.05793414
0.0036470674 0.19036582 0.16540638 0.023436919 0.029243113 0.051445648 0.01174656 0.18648301
0.15732263 -0.20436941 0.00974275 0.11240733 0.08252098 0.011039592 -0.23342876 0.0022666214
0.025500983 0.016141875 0.09364955 0.14882237 0.15957005 -0.25850657 0.024415677 -0.25006187
0.11012037 0.01259305 -0.018986866 0.029889535 -0.0068385066 0.12627067 -0.20245598 0.10954478
0.10799034 0.019903535 -0.21431588 0.22055465 0.059751086 0.03544887 -0.29447863 0.15995021
0.07806357 -0.16691354 -0.11260437 0.09483887 0.06546811 0.12737274 0.089010425 0.00820777
0.013023372 0.12484421 -0.2276451 0.03638174 0.082351886 0.15963636 -0.16187552 0.146205
0.08115643 -0.1977447 0.09992818 0.029529996 -0.004030529 0.16190442 0.03270892 -0.0015813136
0.08265382 -0.009799045 0.1539683 0.16426335 0.0013919799 0.004402823 0.038451437 0.17145771
0.024480445 -0.25074312 0.00891346 0.015034105 -0.24510738 0.080081515 0.0025239554 0.073998
00000000: 0e9e 633a 4fa8 203d ca12 913c b94e 03be
00000010: ae23 c8bd 4fde e2bd 07f1 8cbc e740 cfbd
00000020: 1a95 d8bb b1cc 6abd 9b9b 0dbe bd29 f1bd
00000030: 9b1d ddbd 91f0 50bd 6ec3 a93d 74b2 1fbc
00000040: ca14 1abe cd4c ea3a 2f9e 75bc 4559 8bbc
00000050: 62cd 8bbd 2921 c93c 515c 07be 2b33 8fbc
00000060: c02d 643e 00ac 16bd f1b8 08be 85ea 6f3b
00000070: 7189 00bd 2198 f3bd 7751 62be aed8 513e
00000080: b2c0 2dbe a256 27be aa99 9ebc 93f6 cabd
00000090: 00c6 d93a 3f7e e2ba d861 ffbd dacf 273c
000000a0: 8082 eb3d 0973 bbbc afe5 41bc f09a 0abe
000000b0: 7247 ebbc d6c4 833e a4c6 17bd 3f7f 72bd
000000c0: e870 d9b9 e0bc 3cbe 1dba 21be 1926 b1bc
000000d0: 5fa2 efbc a022 62bd 7b1b 5a3a 39a3 28be
000000e0: e369 3abe 1233 513e b260 1fbc 379c dfbd
000000f0: 8554 b3bd 3859 51bb 6793 733e aace d0ba
00000100: 9336 bdbc 3bc7 47bc b6e3 bfbd 7a48 19be
00000110: a16a 05be b978 873e bad6 92bc 391b 803e
00000120: ef02 e2bd 30b4 76bc 00b2 973c 1d43 00bd
00000130: f608 2639 5847 e1bd d335 4e3e 1a9f e0bd
00000140: 4e27 bbbd 5d17 a4bc 3de6 593e fd1f 61be
00000150: 96fb 77bd 2f15 4bbd e655 973e 8c8a 17be
00000160: 5240 9abd 7a2d 2c3e 17a7 e73d ca04 bcbd
00000170: 3d57 8fbd 1984 02be cef9 0abe 7fe5 69bc
00000180: a00c 80bc c20b 02be cd46 6c3e d7bc 16bd
00000190: f2ee a3bd 41f6 23be faf6 243e 264b 30be
000001a0: 91c9 efbc 7a17 4d3e a827 d5bd 2ef0 3ebd
000001b0: 5c18 303b 732a 2fbe 124d e3bc 66bb 40bb
000001c0: cd1d a9bd e56b 9c3b e891 1cbe de05 3abe
000001d0: d3ef e4ba 7b8e 823a adae 32bd 5667 1ebe
000001e0: 6408 eebc d3ef 803e c4e4 83ba 5062 89bc
000001f0: 4fba 7c3e 0a94 a5bd f34b 863b e878 98bd
00000200: 6a78 cfb9 7258 19bd 0e5e b0bc a34d 053e
00000210: 0d21 073e 49f2 e53d 9189 7d3c 06e3 c73d
00000220: a74e 913b 8727 833d c19f 0d3e d6ba f13d
00000230: 954d fe3d 399f 533d d124 a8bd a0b6 0b3c
00000240: 26b1 0a3e ab6f fa3a ecbf 6b3c 9ae6 403c
00000250: 1f56 9b3d 44ad 72bc 703e 113e 4475 8b3c
00000260: c7c2 5ebe d46e 3c3d 8ca9 173e e68c 88bb
00000270: 0abc 063d dee0 f33d badd 5e3e 30d6 51be
00000280: 5c4c 243e f7e6 ec3d e3a2 883c ac10 c93d
00000290: f8c3 9aba a8d0 373c 82c5 053e 584a 23bc
000002a0: 09a5 eabd 9c47 523d a954 4f3c 3198 013e
000002b0: 8f41 1e3d 98eb 7ebe e373 703d 594c 6d3d
000002c0: a303 6f3b 42ef 423e 4a60 293e c8fe bf3c
000002d0: 418f ef3c acb8 523d a574 403c 67f5 3e3e
000002e0: 2f19 213e 3746 51be 0ea0 1f3c d035 e63d
000002f0: c200 a93d 68df 343c f307 6fbe 998b 143b
00000300: 70e7 d03c f73b 843c 56cb bf3d e464 183e
00000310: 5566 233e f95a 84be 6303 c83c 1c08 80be
00000320: ca86 e13d 1453 4e3c 588a 9bbc e6da f43c
00000330: 8d15 e0bb 194d 013e 9f50 4fbe 0359 e03d
00000340: 0a2a dd3d bd0c a33c 9f75 5bbe 14d9 613e
00000350: 8ebd 743d d632 113d e7c5 96be fdc9 233e
00000360: cbdf 9f3d 62eb 2abe 1f9d e6bd e23a c23d
00000370: 2514 863d 006e 023e 194b b63d e279 063c
00000380: fb5f 553c 52ae ff3d cc1b 69be 0505 153d
00000390: 1ba8 a83d b777 233e b2c2 25be c3b6 153e
000003a0: 5835 a63d 967d 4abe 25a7 cc3d e4e8 f13c
000003b0: 8712 84bb 46ca 253e caf9 053d 1444 cfba
000003c0: 6846 a93d 2c8c 20bc dea9 1d3e a734 283e
000003d0: 1873 b63a 8e45 903b 417f 1d3d 9c92 2f3e
000003e0: 378b c83c 6761 80be c309 123c 9b51 763c
000003f0: 6efd 7abe c701 a43d f268 253b 438c 973d

bias f4 [2]
-0.04964811 -0.03302861
00000000: d15b 4bbd 0249 07bd
